models/checkpoint_income.pth (torch_old, 29146 bytes, 6 tensors)

fc1.weight f4 [50, 113]
0	0x3ed5922e	0.4171309
1	0x3e52da2a	0.20591035
2	0x3a93cfcb	0.0011277137
3	0xbd627fab	-0.055297535
4	0xbda15f13	-0.07879462
5	0xbd074197	-0.033021536
6	0x3d4f8e72	0.050672956
7	0x3ddeb88e	0.10875045
8	0x3d0fef43	0.035140287
9	0xbd803050	-0.06259215
10	0xbe1882ab	-0.14893596
11	0xbd3c68b2	-0.045998283
12	0x3d4173c1	0.047229532
13	0x3ee3a048	0.44458222
14	0x3e409be7	0.18809472
15	0xbca5c724	-0.02023656
16	0xbd61d7c2	-0.055137403
17	0x3dd41cf2	0.103570834
18	0x3e78e53f	0.243062
19	0x3d772e72	0.060347028
20	0xbe189a26	-0.14902553
21	0xbc261b34	-0.010138322
22	0x3d840747	0.064467005
23	0x3e1de52f	0.15419458
24	0x3dd1de27	0.1024745
25	0x3dea7a49	0.11449105
26	0xbda10a62	-0.078633085
27	0x3e36d650	0.17855191
28	0x3e57f10f	0.2108805
29	0xbe2ea272	-0.17054155
30	0x3da282fa	0.07935138
31	0x3f1cc88f	0.6124353
32	0x3ca2f340	0.019891381
33	0xbced1985	-0.028942833
34	0xb9b2f41b	-0.00034132678
35	0x3c87790c	0.016537212
36	0x3dc86635	0.097851194
37	0x3dcc8f7f	0.09988307
38	0x3ddd18b1	0.10795725
39	0xbdd1176c	-0.102095455
40	0xbe1a0f4e	-0.15044901
41	0x3d8a0e3a	0.06740995
42	0x3e26883c	0.16262907
43	0xbd9f4c96	-0.077782795
44	0xbcf4e522	-0.029894415
45	0x3d484268	0.048891455
46	0x3e3a6a89	0.18204702
47	0x3e2109e5	0.1572643
48	0xbc2d4b71	-0.010577069
49	0x3e8653dd	0.26235858
50	0x3dc65d2e	0.09685741
51	0x3f1cb8f3	0.6121971
52	0x3b3709a3	0.0027929328
53	0x3ea3f12c	0.32019937
54	0x3d624aa5	0.055246968
55	0xbe128804	-0.14309698
56	0x3e080d33	0.13286285
57	0xbcd2e57c	-0.025744192
58	0x3d3fe707	0.046851184
59	0x3e461ece	0.19347689
60	0xbc99905c	-0.018745594
61	0x3e078048	0.13232529
62	0x3d520f91	0.051284377
63	0x3e29d89b	0.16586535
64	0x3e3025cc	0.17201918
65	0x3e072899	0.1319908
66	0x3e1301c1	0.14356138
67	0x3d3694d3	0.044575524
68	0xbd9c3962	-0.076281324
69	0xbcacaa48	-0.02107729
70	0x3d210c2f	0.03931826
71	0xbd46088a	-0.048347987
72	0xbdd6880d	-0.104751684
73	0xbcc3c6d5	-0.023898521
74	0x3db9b08a	0.09066875
75	0xbd5aa36d	-0.05337851
76	0x3c905def	0.017622916
77	0x3eb84ecb	0.35997614
78	0x3db4e1e0	0.08832145
79	0xbd7050fc	-0.058670983
80	0x3e88d5d2	0.26725632
81	0x3e32ba53	0.1745389
82	0x3ded206d	0.1157845
83	0xbd4c3738	-0.04985735
84	0x3c8db157	0.017296476
85	0x3e8f7976	0.28022355
86	0xbcdb27bb	-0.026752343
87	0xbd6e6b2c	-0.058207676
88	0x3db0d0df	0.08633589
89	0x3d4d7850	0.050163567
90	0x3e488b40	0.1958437
91	0x3e0b369c	0.1359505
92	0x3d8a7496	0.06760518
93	0xbdf706c9	-0.12061841
94	0xbe052fa1	-0.1300645
95	0x3e5dc67d	0.21657749
96	0x3e080198	0.13281858
97	0x3b758aeb	0.0037466835
98	0x3d7a023d	0.06103729
99	0xbd655662	-0.055990584
100	0x3eb418e3	0.35175237
101	0xbcaf9436	-0.021432977
102	0x3d42254d	0.047398854
103	0x3e8f993f	0.28046605
104	0x3df1980b	0.11796578
105	0x3e11e21f	0.14246415
106	0x3d0fdcb5	0.035122592
107	0xbc478b3f	-0.012179195
108	0x3e066e0e	0.1312792
109	0x3e86aba0	0.26302814
110	0xbd9273da	-0.07151003
111	0xbcdb701c	-0.026786856
112	0x3e114ca6	0.14189395
113	0xbe820cca	-0.25400382
114	0xbe1bbe77	-0.15209375
115	0xbd3a791c	-0.045525655
116	0x3e32f2d5	0.17475446
117	0x3bb93aae	0.005652747
118	0xbba377ff	-0.00498867
119	0xbddc58a1	-0.10759092
120	0x3dc44332	0.09583129
121	0xbe607dae	-0.21922943
122	0xbd80210c	-0.06256303
123	0x3ddf75ea	0.10911162
124	0xbe108e0a	-0.14116684
125	0xbd9864a4	-0.07441071
126	0xbe9604fc	-0.29300678
127	0xbd6b25c6	-0.05740907
128	0x3d8a9792	0.06767191
129	0x3c0be1fc	0.008537766
130	0x3d1a8522	0.03772462
131	0xbe574517	-0.2102245
132	0x3d54446c	0.051823065
133	0x3e5ffafb	0.21873085
134	0xbe032815	-0.12808259
135	0x3c768975	0.015047421
136	0xbe40c8ea	-0.18826643
137	0xbdc2d5a6	-0.095134065
138	0x3b142885	0.002260716
139	0x3e50c36a	0.20387045
140	0xbe2b3f76	-0.16723427
141	0xbded09d0	-0.11574137
142	0x3e3badcb	0.18328016
143	0xbdd56b95	-0.1042091
144	0xbeb3286e	-0.34991783
145	0x3d8e4d09	0.06948287
146	0x3c7f48e0	0.01558134
147	0xbd9953b4	-0.07486668
148	0xbdd4a825	-0.103836335
149	0xbca457a9	-0.02006133
150	0xbd50ba36	-0.050958835
151	0xbe509023	-0.20367484
152	0x3e71fb11	0.2363093
153	0x3dcd2185	0.10016159
154	0xbe15981b	-0.14608805
155	0xbd9f659c	-0.07783052
156	0xbd05fe1d	-0.032713044
157	0x3e6448c3	0.22293381
158	0x3d902d9c	0.07039949
159	0xbd883557	-0.06650799
160	0xbc846c0b	-0.0161648
161	0xbd290049	-0.041260038
162	0xbded11bd	-0.11575649
163	0xbdd21850	-0.102585435
164	0xbeb65d1d	-0.35617915
165	0x3c558b61	0.013033719
166	0xbe1da491	-0.15394808
167	0x3d9dd751	0.07707084
168	0x3e201d73	0.15636234
169	0xbe02a83f	-0.12759493
170	0x3dd6e432	0.104927436
171	0xbe04b7a6	-0.12960681
172	0xbdacd0a1	-0.0843823
173	0xbce64f4d	-0.028113985
174	0xbd7d584b	-0.06185178
175	0xbd165b3b	-0.036708098
176	0xbe758769	-0.23977436
177	0xbd79a256	-0.06094583
178	0x3d0ac123	0.033875596
179	0xbd971333	-0.07376709
180	0x3d4078dd	0.046990264
181	0xbdbc6c8d	-0.09200392
182	0x3cbfc047	0.023407115
183	0x3da73c76	0.08165829
184	0x3b001c64	0.0019548172
185	0x3d5f2b9b	0.054484945
186	0xbdd1081c	-0.10206625
187	0xbea37581	-0.31925586
188	0xbd16690c	-0.036721274
189	0x3e0dc767	0.13845597
190	0xbeba6d4e	-0.36411518
191	0xbd097472	-0.033558317
192	0xbc9f7ebb	-0.01946961
193	0xbe015ba7	-0.12632619
194	0xbe70c6c3	-0.23513322
195	0xbdeea6e4	-0.116529256
196	0x3d670d0c	0.056408927
197	0xbdb8b911	-0.090196736
198	0x3d8d72ab	0.06906637
199	0xbd3a0f49	-0.045424733
200	0x3da6d218	0.08145541
201	0x3c652e4a	0.013988087
202	0xbe04fe36	-0.12987599
203	0xbe611223	-0.21979575
204	0xbe5f404e	-0.21801874
205	0xbc639396	-0.013890168
206	0x3e289426	0.16462764
207	0xb9780796	-0.00023653949
208	0xbe05f030	-0.13079906
209	0x3c2d2f11	0.010570304
210	0xbd005c73	-0.031338166
211	0x3d0e9ad8	0.03481564
212	0xbc97bb51	-0.018521937
213	0xbe9984ee	-0.2998423
214	0xbe407cda	-0.18797627
215	0xbeaa8139	-0.33301714
216	0xbe061874	-0.13095266
217	0xbe0c198c	-0.1368162
218	0x3c2cda22	0.010550054
219	0x3d06cee9	0.03291217
220	0xbcd5b367	-0.026086522
221	0xbe2d35f0	-0.16915107
222	0xbe026bfb	-0.12736504
223	0x3cf63784	0.030055769
224	0xbe48b5b3	-0.19600563
225	0xbdac3d5c	-0.08410141
226	0xbf49bb43	-0.78801364
227	0xbe4127a7	-0.18862782
228	0xbcee7d7e	-0.029112574
229	0x3e08a567	0.13344346
230	0x3df4aad8	0.11946648
231	0xbe340290	-0.17579103
232	0xbd0cb6de	-0.034354083
233	0xbd3cd79d	-0.046104062
234	0xbdca97c4	-0.09892228
235	0x3da9b67e	0.08286761
236	0xbea5a527	-0.32352564
237	0xbe99fbda	-0.3007496
238	0xbbe42ac8	-0.0069631077
239	0xbb146e7b	-0.002264886
240	0xbc0ac1e5	-0.00846908
241	0xbd99a738	-0.075025976
242	0x3e7acd93	0.24492483
243	0xbe6a5b2b	-0.2288634
244	0xbe921ef4	-0.2853924
245	0xbec01da0	-0.37522602
246	0x3e1b3bf0	0.15159583
247	0xbcd7247a	-0.02626251
248	0xbd4efb0e	-0.050532393
249	0xbd5ed708	-0.05440429
250	0xbefb1604	-0.49040234
251	0xbe7c46da	-0.24636403
252	0x3da66c3b	0.08126112
253	0xbea0936a	-0.31362468
254	0x3d755863	0.059898745
255	0x3e991916	0.29901952

fc1.bias f4 [50]
0	0x3cc3c872	0.02389929
1	0xbd98d507	-0.07462507
2	0xbd6f1578	-0.058370084
3	0xbd2d643c	-0.04233192
4	0xbccf0162	-0.025269214
5	0x3e6a77e9	0.22897305
6	0x3e17d9c6	0.14829168
7	0xbed0563f	-0.406908
8	0x3dd0aa7c	0.10188767
9	0x3da56e80	0.08077717
10	0x3d70c605	0.058782596
11	0xbe9fe8bb	-0.31232247
12	0xbdbd7be2	-0.092521444
13	0x3da254ba	0.079263166
14	0x3ce6a736	0.028155904
15	0x3d4f150c	0.05055718
16	0x3e03c93c	0.12869734
17	0xbda548e8	-0.080705464
18	0x3dd6e033	0.10491981
19	0x3d823c3f	0.06359147
20	0x3e8b4625	0.27201954
21	0x3e882aa3	0.2659503
22	0x3df10567	0.117686085
23	0x3dab760d	0.08372126
24	0xbe4a591b	-0.19760554
25	0x3e0446f1	0.12917687
26	0x3dcb9168	0.099398434
27	0x3de90232	0.11377372
28	0xbe9d6d77	-0.30747578
29	0xbe7ca0fd	-0.24670787
30	0xbe2a9bfb	-0.16661064
31	0xbe94482b	-0.2896131
32	0xbe304a85	-0.17215927
33	0xbeabfc40	-0.3359089
34	0x3ddfcc9c	0.10927698
35	0x3d3b8f65	0.04579105
36	0x3e5dba7d	0.21653171
37	0x3deff5cf	0.11716806
38	0x3e8b32f4	0.27187312
39	0x3cfedf8c	0.031112455
40	0x3d17b768	0.037040144
41	0x3ea419c2	0.32050902
42	0xbeaabcce	-0.33347172
43	0xbe005f97	-0.12536465
44	0xbd450f41	-0.04811025
45	0xbd775a4a	-0.06038884
46	0x3e289eb1	0.16466786
47	0x3d1aad9d	0.037763227
48	0xbcd7dd94	-0.026350774
49	0x3d8b500a	0.068023756

fc2.weight f4 [25, 50]
0	0x3df247b1	0.1183008
1	0xbd633e07	-0.055479076
2	0x3d4a10f7	0.049332585
3	0x3d632b4b	0.05546121
4	0xbe121776	-0.14266762
5	0xbd894cbb	-0.06704088
6	0x3e200c56	0.15629706
7	0x3c83036e	0.015992846
8	0x3da524dd	0.08063672
9	0xbc309b12	-0.010779159
10	0xbd1d123f	-0.03834748
11	0x3dbea783	0.09309294
12	0x3dd822aa	0.10553487
13	0x3d11c698	0.035589784
14	0x3dda7f50	0.10668814
15	0x3dd1a8e4	0.102372915
16	0x3dcaa418	0.0989458
17	0x3c2606ef	0.010133489
18	0x3dd5caf4	0.10439101
19	0xbe11a9ef	-0.14224981
20	0xbda797c5	-0.081832446
21	0x3e82a3a6	0.2551548
22	0xbcc63431	-0.024194809
23	0x3deb4853	0.11488404
24	0xbe1c587c	-0.15268129
25	0x3c92525a	0.017861534
26	0x3c106511	0.008813159
27	0xbdb32cbb	-0.08748766
28	0x3ceb9c12	0.028760944
29	0xbd255374	-0.04036279
30	0xbcd989ce	-0.026554968
31	0xbd52bbd8	-0.051448673
32	0xbd9e2457	-0.07721775
33	0xbdfb5adf	-0.12273192
34	0x3e19a513	0.15004377
35	0xbd0bae97	-0.03410205
36	0xbda9718d	-0.08273611
37	0x3e3d7a53	0.18503694
38	0x3c109000	0.008823395
39	0xbc2ecd79	-0.010669106
40	0x3d81ad59	0.063318916
41	0x3e0e9e2a	0.13927522
42	0x3d807919	0.062730975
43	0xbdf03d23	-0.11730411
44	0xbc41fca8	-0.011840023
45	0xbda03ba3	-0.07823875
46	0x3e164b8f	0.14677261
47	0xbd23753a	-0.039906718
48	0xbd6d35ce	-0.05791264
49	0x3ce74480	0.028230906
50	0xbd8430fc	-0.064546555
51	0xbde82ab4	-0.1133627
52	0x3d33f9c0	0.043939352
53	0xbda8103e	-0.08206223
54	0xbdb96b88	-0.09053713
55	0xbd55f50a	-0.05223564
56	0x3d8b9938	0.068163335
57	0xbd39a15c	-0.0453199
58	0xbdaa4a1e	-0.08314918
59	0xbd220742	-0.039557703
60	0xbc1897c0	-0.009313524
61	0xbdbb61da	-0.09149523
62	0x3e099945	0.13437374
63	0xbdb242ec	-0.087041706
64	0xbdca1592	-0.098673955
65	0x3cb8bea0	0.022551835
66	0x3c6e9f80	0.014564395
67	0x3e104249	0.14087786
68	0xbdffed32	-0.12496413
69	0xbd9a9331	-0.07547606
70	0x3d0ed88c	0.034874484
71	0xbbd57e40	-0.0065152943
72	0x3dc64fec	0.09683213
73	0xbe015c68	-0.12632906
74	0xbdd8b0b5	-0.10580579
75	0x3d896d30	0.06710279
76	0x3dd44044	0.1036382
77	0x3bc803e0	0.0061039776
78	0x3de4f1fa	0.11178966
79	0x3d2af280	0.041735172
80	0xbe056e2f	-0.13030313
81	0xbd2c9dd0	-0.04214269
82	0x3e0ebdbd	0.13939567
83	0xbdd86d46	-0.10567717
84	0xbdd19384	-0.102332145
85	0xbc031ea0	-0.008002907
86	0xbd64488e	-0.055733256
87	0x3d670cdc	0.056408748
88	0xbe022953	-0.12711076
89	0xbdce2a44	-0.10066655
90	0xbc5d65d0	-0.0135130435
91	0x3cd0a570	0.025469512
92	0x3d89642a	0.06708558
93	0x3ddae7dc	0.10688755
94	0x3d00da68	0.03145829
95	0xbdee6f34	-0.11642304
96	0x3dadcf0c	0.08486757
97	0xbc8e57e8	-0.017375901
98	0xbdfe0606	-0.12403493
99	0xbdd9bb1c	-0.106313914
100	0x3db947f9	0.09046931
101	0xbdc8bfaa	-0.09802182
102	0xbd57ae82	-0.052656658
103	0xbd9eb657	-0.07749622
104	0xb9012756	-0.00012317052
105	0xbdaea11b	-0.08526822
106	0x3d35e566	0.044408225
107	0xbe00e7f8	-0.12588489
108	0x3d9c5e17	0.07635134
109	0xbdd164e2	-0.1022432
110	0xbd9e7807	-0.07737737
111	0xbd6d232c	-0.05789487
112	0xbe0cab8e	-0.13737318
113	0x3da58c7f	0.08083438
114	0xba30b388	-0.00067406194
115	0x3e02be4f	0.1276791
116	0xbd741064	-0.059585944
117	0xbd9473fd	-0.072486855
118	0xbd233a17	-0.03985032
119	0xbd56391b	-0.052300554
120	0xbe15c3c4	-0.1462546
121	0x3c25bd58	0.010115944
122	0x3d4df29e	0.050280206
123	0x3d4a3e76	0.049375974
124	0x3e02a468	0.12758029
125	0x3da3c0d5	0.07995764
126	0xbe587b44	-0.21140772
127	0xbd9c1165	-0.07620505
128	0x3d670678	0.056402653
129	0x3dd36812	0.10322584
130	0xbce4b264	-0.027917095
131	0x3c81ee8b	0.015860816
132	0xbd4694c3	-0.048481714
133	0x3d385b4f	0.045008954
134	0xbd35ac3a	-0.0443537
135	0xbcbba5f4	-0.022906281
136	0xbded1c20	-0.1157763
137	0xbd0de545	-0.034642477
138	0x3d96dcab	0.07366308
139	0xbd3a034f	-0.04541331
140	0x3cee80f4	0.029114224
141	0xbd8eef8f	-0.06979286
142	0xbe1195d6	-0.14217314
143	0x3dacdf09	0.08440978
144	0x3dd7b4d7	0.10532539
145	0x3da7f64d	0.08201275
146	0x3d6da2b0	0.05801648
147	0x3c17094f	0.009218528
148	0x3cf81c81	0.03028703
149	0xbca2c5d2	-0.019869719
150	0x3d826391	0.06366647
151	0xbd4ac855	-0.049507458
152	0x3c742d1d	0.014903334
153	0xbd06cb46	-0.0329087
154	0xbccded55	-0.025137583
155	0x3ca37d0b	0.019957086
156	0xbc638e5d	-0.0138889225
157	0xbbd41e00	-0.006473303
158	0xbec8a349	-0.39187077
159	0x3d2081b2	0.039186187
160	0x3d41ec3c	0.04734443
161	0xbdc3a128	-0.095522225
162	0xbd155c60	-0.03646505
163	0xbd850b05	-0.064962424
164	0x3e0dffae	0.13867065
165	0xbe2e41fd	-0.1701736
166	0xbcc79e6a	-0.02436753
167	0xbc0da38c	-0.00864495
168	0x3dfb2000	0.12261963
169	0x3d0d6b00	0.03452587
170	0xbc15c5d5	-0.009141405
171	0x3dadbbb7	0.084830694
172	0xbdbb2fa4	-0.09139946
173	0xbe352bda	-0.1769251
174	0xbe14795b	-0.14499418
175	0xbda85fe6	-0.08221416
176	0xbd597675	-0.053091485
177	0xbd894a32	-0.06703605
178	0xbdb18b7a	-0.08669181
179	0xbd729135	-0.05922051
180	0xbd9cd8e0	-0.07658553
181	0xbe014aca	-0.12626186
182	0x3c2bc0b2	0.010482954
183	0xbd9fd808	-0.078048766
184	0xbde98a63	-0.11403348
185	0x3dd8dbad	0.10588775
186	0xbe3702af	-0.17872117
187	0x3d99ac21	0.07503534
188	0xbe0804c8	-0.13283074
189	0xbda668a0	-0.081254244
190	0x3da6f23b	0.081516705
191	0x3d6d9650	0.058004677
192	0xbc9b2fe8	-0.018943742
193	0xbcac18db	-0.021007946
194	0x3e3a615b	0.182012
195	0xbe1d5b1d	-0.15366788
196	0x3db8ec95	0.090294994
197	0x3df2f049	0.11862237
198	0xbd855d19	-0.065118976
199	0xbdf6fbe6	-0.120597646
200	0x3cad0cea	0.021124322
201	0xbdd08e0b	-0.101833425
202	0xbdc6b14a	-0.09701784
203	0xbd8cb083	-0.068696044
204	0x3d892cf5	0.06698028
205	0xbdbfc38d	-0.0936347
206	0x3ea0e406	0.31423968
207	0xbdd9a003	-0.10626223
208	0xbd69c0e3	-0.057068717
209	0x3d648329	0.055789147
210	0xbdff4926	-0.12465124
211	0x3e0c4957	0.13699852
212	0x3dff579e	0.124678835
213	0xbd9c834f	-0.076422326
214	0x3d6df3fc	0.05809401
215	0x3c52a82e	0.01285748
216	0x3dfd3c49	0.12365014
217	0xbd7ec558	-0.06219992
218	0x3d0204e4	0.031742945
219	0xbcdc4a2e	-0.02689084
220	0x3cf7a90e	0.030231979
221	0x3e63cffe	0.22247311
222	0x3f25db79	0.64788014
223	0x3e4d468c	0.20046443
224	0xbe185515	-0.14876206
225	0x3daaa23f	0.08331727
226	0x3e03d740	0.1287508
227	0xbc967c5f	-0.018369852
228	0xbd78f642	-0.060781725
229	0xbdc10e44	-0.09426549
230	0x3d1a6a90	0.037699282
231	0x3d964863	0.073380254
232	0x3d1ffad6	0.039057575
233	0x3d0efb43	0.03490759
234	0x3e2fd2cb	0.17170255
235	0x3d383fb8	0.044982642
236	0x3d29f728	0.041495472
237	0x3c36e7ab	0.011163632
238	0x3daa8aa7	0.08327227
239	0x3dab8e31	0.0837673
240	0x3d43b136	0.047776423
241	0xbaace768	-0.0013191523
242	0xbd0a311d	-0.033738244
243	0xbdbec5a6	-0.09315042
244	0xbe5f3d6a	-0.21800771
245	0xbcf205ec	-0.02954384
246	0xbcc70b56	-0.024297398
247	0x3dc1f16c	0.09469876
248	0xbd8242de	-0.0636041
249	0x3d69dab8	0.057093352
250	0x3cd13b98	0.025541112
251	0x3c9c1ea8	0.019057587
252	0x3dcb6d22	0.09932925
253	0xbded05ad	-0.11573348
254	0x3d63d30c	0.05562119
255	0xbd2c9b9e	-0.042140596

fc2.bias f4 [25]
0	0x3e65c247	0.22437392
1	0x3d3fb6f4	0.046805337
2	0xbb9dd84d	-0.004817045
3	0xbd0382c9	-0.03210715
4	0x3e8576ae	0.26067108
5	0xbdd588d0	-0.104264855
6	0x3dad0f29	0.08450157
7	0x3dd49317	0.10379618
8	0x3d0fb8ed	0.03508847
9	0x3e02bdc7	0.12767707
10	0xbceb26cf	-0.028705029
11	0xbef2c7bc	-0.4741801
12	0x3ce9ca45	0.028538832
13	0xbe6b6207	-0.22986613
14	0x3e5b6d12	0.21428326
15	0x3e01c857	0.1267408
16	0xbd9813d4	-0.07425657
17	0x3eb135d1	0.3461137
18	0xbf0c6afe	-0.5485076
19	0xbe770eec	-0.24126786
20	0x3ddcfba2	0.10790183
21	0x3e3ac178	0.18237865
22	0xbceb54c1	-0.028726937
23	0xbe64c784	-0.22341734
24	0x3e8ad3bc	0.27114666

fc3.weight f4 [2, 25]
0	0x3e1af6df	0.15133236
1	0xbe0a72fd	-0.13520427
2	0xbddabc92	-0.10680498
3	0xbdf7bf0b	-0.120969854
4	0xbcc9a63d	-0.024615401
5	0xbe486e38	-0.19573295
6	0x3e8c5980	0.27412033
7	0x3e7bc48c	0.24586695
8	0xbe4da3ce	-0.20082018
9	0x3da4b1a2	0.08041693
10	0x3e4938bd	0.1965055
11	0xbd0b6bff	-0.03403854
12	0x3c44e815	0.012018223
13	0x3d31df56	0.04342588
14	0x3cbdcef1	0.023169966
15	0xbddab7f3	-0.10679617
16	0xbe51d33f	-0.2049074
17	0x3e344434	0.17604142
18	0xbdeb99ca	-0.11503942
19	0xbe0106f1	-0.12600304
20	0xbe9a9d59	-0.30198172
21	0x3e2c3dd3	0.16820459
22	0xbe0b599c	-0.13608402
23	0xbc43db62	-0.01195416
24	0x3dc85556	0.097819015
25	0x3d5af15f	0.053452846
26	0xbe30fa7b	-0.1728305
27	0xbd069374	-0.032855466
28	0x3e4e887d	0.20169254
29	0xbda9d187	-0.08291917
30	0x3e01c0f5	0.12671264
31	0xbeb638d8	-0.35590243
32	0xbe2636e1	-0.16231872
33	0x3e97c9b3	0.29646072
34	0xbda0c167	-0.078493886
35	0xbe532605	-0.20619972
36	0xbd088e1b	-0.033338647
37	0xbe8053ad	-0.2506384
38	0x3e2983cb	0.16554181
39	0xbe37c1ca	-0.17945018
40	0x3dab1cb8	0.08355087
41	0x3e6b0e64	0.22954708
42	0x3ce689a3	0.028141802
43	0x3d4b0c38	0.0495722
44	0xbd878bae	-0.06618439
45	0x3dae6217	0.08514803
46	0xbdab5879	-0.08366484
47	0x3e08cd3a	0.13359538
48	0x3e273f25	0.16332681
49	0xbad21bec	-0.001603005

fc3.bias f4 [2]
0	0x3e198773	0.14993076
1	0xbeae60ee	-0.34058326
